…
.distribution_easy.20250712-211202_592609", "format_strs": ["csv", "stdout"], "writer": "<torch.utils.tensorboard.writer.SummaryWriter object at 0x0000027153B8F790>", "num_levels": 1, "start_level": 0, "eval_num_levels": 1, "eval_start_level": 0, "venv": "<vec_env.vec_normalize.VecNormalize object at 0x0000027105BC0CD0>", "eval_venv": null, "device_type": "cpu", "obs_space": "Box(0, 255, (64, 64, 3), uint8)", "feature_input": false, "embed_dim": 512, "kwargs": {"with_norm_layer": true, "p_dropblock": 0.0, "device": "device(type='cpu')"}, "neural_nets": "NatureCNN(\n  (cnn): Sequential(\n    (0): Conv2d(3, 32, kernel_size=(6, 6), stride=(3, 3))\n    (1): DropBlock2d(p=0.0, block_size=3, inplace=False)\n    (2): BatchNorm2d(32, eps=1e-05, momentum=0.1, affine=True, track_running_stats=True)\n    (3): ReLU()\n    (4): Conv2d(32, 64, kernel_size=(3, 3), stride=(2, 2))\n    (5): DropBlock2d(p=0.0, block_size=3, inplace=False)\n    (6): BatchNorm2d(64, eps=1e-05, momentum=0.1, affine=True, track_running_stats=True)\n    (7): ReLU()\n    (8): Conv2d(64, 64, kernel_size=(3, 3), stride=(1, 1))\n    (9): DropBlock2d(p=0.0, block_size=3, inplace=False)\n    (10): BatchNorm2d(64, eps=1e-05, momentum=0.1, affine=True, track_running_stats=True)\n    (11): ReLU()\n    (12): Flatten(start_dim=1, end_dim=-1)\n  )\n  (linear): Sequential(\n    (0): Linear(in_features=3136, out_features=512, bias=True)\n    (1): ReLU()\n  )\n)", "preprocess": "<function build_cnn.<locals>.preprocess at 0x0000027105BACEE0>", "act_num": 15, "actor_critic": "CategoricalActorCritic(\n  (embed_net): NatureCNN(\n    (cnn): Sequential(\n      (0): Conv2d(3, 32, kernel_size=(6, 6), stride=(3, 3))\n      (1): DropBlock2d(p=0.0, block_size=3, inplace=False)\n      (2): BatchNorm2d(32, eps=1e-05, momentum=0.1, affine=True, track_running_stats=True)\n      (3): ReLU()\n      (4): Conv2d(32, 64, kernel_size=(3, 3), stride=(2, 2))\n      (5): DropBlock2d(p=0.0, block_size=3, inplace=False)\n      (6): BatchNorm2d(64, eps=1e-05, momentum=0.1, affine=True, track_running_stats=True)\n      (7): ReLU()\n      (8): Conv2d(64, 64, kernel_size=(3, 3), stride=(1, 1))\n      (9): DropBlock2d(p=0.0, block_size=3, inplace=False)\n      (10): BatchNorm2d(64, eps=1e-05, momentum=0.1, affine=True, track_running_stats=True)\n      (11): ReLU()\n      (12): Flatten(start_dim=1, end_dim=-1)\n    )\n    (linear): Sequential(\n      (0): Linear(in_features=3136, out_features=512, bias=True)\n      (1): ReLU()\n    )\n  )\n  (logits_net): Sequential(\n    (0): Linear(in_features=512, out_features=15, bias=True)\n  )\n  (v_net): Sequential(\n    (0): Linear(in_features=512, out_features=1, bias=True)\n  )\n)", "var_counts": "1665376"}